Assets/config/ppo/results/TestSession1/Futbolito/checkpoint.pt (torch, 548791 bytes, 50 tensors)

network_body.observation_encoder.processors.0.normalizer.running_mean f4 [38]
0	0xc0048150	-2.0703926
1	0x4022cd88	2.5437946
2	0x403a4ec0	2.9110565
3	0xbef2c807	-0.47418234
4	0xbe599e23	-0.2125173
5	0xbc0b5e41	-0.008506359
6	0x3746cae7	1.1848962e-05
7	0x40d45097	6.6348376
8	0x40516cad	3.272258
9	0x407c8f21	3.946236
10	0x378f5d68	1.7090424e-05
11	0xbfd78979	-1.6838828
12	0x40512b21	3.2682574
13	0x40770011	3.859379
14	0xb685b070	-3.984249e-06
15	0xc109e3ac	-8.618084
16	0x40515485	3.2707837
17	0x40699dd6	3.6502585
18	0x37031b09	7.814503e-06
19	0xc13f9179	-11.973016
20	0x405184f7	3.2737405
21	0x408720b9	4.2227445
22	0xbbe0c43f	-0.006859332
23	0xc0b435f5	-5.6315866
24	0x404d1f64	3.205041
25	0x40ca6cf0	6.325798
26	0x3b8db04a	0.004323994
27	0x402ac10f	2.6680334
28	0x404f41d2	3.2383924
29	0x407feda9	3.9988806
30	0xbc649eb4	-0.013953853
31	0x411a6a00	9.650879
32	0x404d71cc	3.2100706
33	0x40c9b932	6.303857
34	0xbd0f8621	-0.035040025
35	0x414f8704	12.970463
36	0x4050a867	3.2602785
37	0x408ef839	4.4678006

network_body.observation_encoder.processors.0.normalizer.running_variance f4 [38]
0	0x49c2c35e	1.5954998e+06
1	0x464029e3	12298.472
2	0x48dcd6cb	452278.34
3	0x477db6a1	64950.63
4	0x47850978	68114.94
5	0x4635db0e	11638.764
6	0x3fca107a	1.5786278
7	0x4586f4be	4318.593
8	0x45898a47	4401.2847
9	0x484fb9ae	212710.72
10	0x3fc4c902	1.5373843
11	0x4581b414	4150.51
12	0x458ab6ec	4438.865
13	0x4737a8b2	47016.695
14	0x3fd55950	1.6667881
15	0x45887d0a	4367.63
16	0x458b8371	4464.43
17	0x487e6b11	260524.27
18	0x3fcea5ea	1.6144383
19	0x458a3b3a	4423.4033
20	0x458cf9f4	4511.244
21	0x47faa614	128332.16
22	0x46ef9004	30664.008
23	0x457c9b92	4041.7231
24	0x4589f13e	4414.1553
25	0x484979ff	206311.98
26	0x470bbd90	35773.562
27	0x45898d5f	4401.6714
28	0x45835ba7	4203.4565
29	0x4749af9b	51631.605
30	0x46f4ef8d	31351.775
31	0x45847a92	4239.3213
32	0x4588a995	4373.1978
33	0x4826df8c	170878.19
34	0x470bfbbb	35835.73
35	0x458c9956	4499.167
36	0x45895549	4394.6606
37	0x484c05e1	208919.52

network_body.processors.0.normalizer.running_mean f4 [38]
0	0xc0048150	-2.0703926
1	0x4022cd88	2.5437946
2	0x403a4ec0	2.9110565
3	0xbef2c807	-0.47418234
4	0xbe599e23	-0.2125173
5	0xbc0b5e41	-0.008506359
6	0x3746cae7	1.1848962e-05
7	0x40d45097	6.6348376
8	0x40516cad	3.272258
9	0x407c8f21	3.946236
10	0x378f5d68	1.7090424e-05
11	0xbfd78979	-1.6838828
12	0x40512b21	3.2682574
13	0x40770011	3.859379
14	0xb685b070	-3.984249e-06
15	0xc109e3ac	-8.618084
16	0x40515485	3.2707837
17	0x40699dd6	3.6502585
18	0x37031b09	7.814503e-06
19	0xc13f9179	-11.973016
20	0x405184f7	3.2737405
21	0x408720b9	4.2227445
22	0xbbe0c43f	-0.006859332
23	0xc0b435f5	-5.6315866
24	0x404d1f64	3.205041
25	0x40ca6cf0	6.325798
26	0x3b8db04a	0.004323994
27	0x402ac10f	2.6680334
28	0x404f41d2	3.2383924
29	0x407feda9	3.9988806
30	0xbc649eb4	-0.013953853
31	0x411a6a00	9.650879
32	0x404d71cc	3.2100706
33	0x40c9b932	6.303857
34	0xbd0f8621	-0.035040025
35	0x414f8704	12.970463
36	0x4050a867	3.2602785
37	0x408ef839	4.4678006

network_body.processors.0.normalizer.running_variance f4 [38]
0	0x49c2c35e	1.5954998e+06
1	0x464029e3	12298.472
2	0x48dcd6cb	452278.34
3	0x477db6a1	64950.63
4	0x47850978	68114.94
5	0x4635db0e	11638.764
6	0x3fca107a	1.5786278
7	0x4586f4be	4318.593
8	0x45898a47	4401.2847
9	0x484fb9ae	212710.72
10	0x3fc4c902	1.5373843
11	0x4581b414	4150.51
12	0x458ab6ec	4438.865
13	0x4737a8b2	47016.695
14	0x3fd55950	1.6667881
15	0x45887d0a	4367.63
16	0x458b8371	4464.43
17	0x487e6b11	260524.27
18	0x3fcea5ea	1.6144383
19	0x458a3b3a	4423.4033
20	0x458cf9f4	4511.244
21	0x47faa614	128332.16
22	0x46ef9004	30664.008
23	0x457c9b92	4041.7231
24	0x4589f13e	4414.1553
25	0x484979ff	206311.98
26	0x470bbd90	35773.562
27	0x45898d5f	4401.6714
28	0x45835ba7	4203.4565
29	0x4749af9b	51631.605
30	0x46f4ef8d	31351.775
31	0x45847a92	4239.3213
32	0x4588a995	4373.1978
33	0x4826df8c	170878.19
34	0x470bfbbb	35835.73
35	0x458c9956	4499.167
36	0x45895549	4394.6606
37	0x484c05e1	208919.52

network_body._body_endoder.seq_layers.0.weight f4 [128, 38]
0	0xbde25ec0	-0.110532284
1	0xbe2f002b	-0.17089908
2	0xbe73bf19	-0.23803367
3	0xbcd81d8a	-0.026381273
4	0xbe1eae58	-0.15496194
5	0x3dd19519	0.10233516
6	0x3dd5dee5	0.104429044
7	0xbe28a61c	-0.16469616
8	0xbdb8dc26	-0.09026365
9	0x3e35c8ce	0.17752382
10	0xbdc88c11	-0.097923405
11	0x3d1d25e4	0.038366213
12	0x3dc61cc6	0.09673457
13	0x3d673955	0.05645116
14	0xbe50a4e7	-0.20375405
15	0xbea969cb	-0.33088526
16	0x3e169ee7	0.14709054
17	0x3e4748b8	0.19461334
18	0xbd4e1de5	-0.05032148
19	0xbe01beec	-0.12670487
20	0x3e490a41	0.19632818
21	0xbdaf4933	-0.085588835
22	0x3d23bc75	0.03997465
23	0xbe36e707	-0.17861567
24	0xbb907d05	-0.0044094347
25	0x3e21cc3c	0.15800565
26	0x3da08646	0.078381106
27	0xbd0e4db4	-0.034742072
28	0x3ea19c08	0.31564355
29	0x3edf5ca3	0.43625364
30	0x3d85a8c6	0.065263316
31	0x3c9519f2	0.018200848
32	0x3d33e924	0.043923512
33	0xbea28a49	-0.31746128
34	0x3e8aa862	0.2708159
35	0xbd18db67	-0.037318613
36	0x3e055472	0.13020495
37	0xbe3986ff	-0.18117903
38	0x3d8b346d	0.06797109
39	0xbee258e1	-0.44208434
40	0xbd0215f2	-0.03175921
41	0x3e33bb49	0.17551912
42	0xbe948b85	-0.29012695
43	0x3d9bc25d	0.07605431
44	0xbe41870b	-0.18899171
45	0xbec7f59f	-0.39054582
46	0xbdebd0ad	-0.11514411
47	0xbe436388	-0.19080937
48	0xbd23700d	-0.03990178
49	0xbe5f3a7e	-0.21799657
50	0x3d44ca87	0.048044708
51	0xbe4ad766	-0.1980873
52	0xbe315f8f	-0.17321609
53	0x3d5c0068	0.053711325
54	0x3eb79dc5	0.35862556
55	0x3e73b6d2	0.23800209
56	0xbdbc7abd	-0.09203098
57	0xbc3e8581	-0.0116285095
58	0xbe96d3f1	-0.29458573
59	0x3d7c61e0	0.06161678
60	0x3e0e0458	0.13868845
61	0x3bb3888e	0.005478925
62	0xbdc1db35	-0.094656385
63	0xbdf4e3ed	-0.11957536
64	0xbd8d7097	-0.069062404
65	0x3d3a69ab	0.04551093
66	0xbe27fbdd	-0.16404672
67	0x3d1032e5	0.035204787
68	0xbe0e020c	-0.13867968
69	0xbe335ae3	-0.1751514
70	0x3dad9785	0.08476166
71	0x3d95fed2	0.07323994
72	0xbe2cdbd1	-0.16880728
73	0xbcd75cee	-0.02628943
74	0x3e921841	0.2853413
75	0xbded21a7	-0.11578684
76	0x3e2adc6e	0.1668565
77	0x3db33224	0.08749798
78	0x3db4952a	0.08817513
79	0xbdd624fc	-0.10456273
80	0x3e2e7205	0.17035682
81	0x3e75160a	0.23934188
82	0x3c02bd79	0.007979744
83	0x3dbb7df6	0.091548845
84	0x3e201403	0.15632634
85	0x3a8beadb	0.0010674851
86	0x3e6b32f3	0.22968654
87	0xbe6419af	-0.22275423
88	0xbe2d35b4	-0.16915017
89	0x3ce5ed2a	0.02806719
90	0x3e9e7bee	0.30953926
91	0xbd636695	-0.05551775
92	0xbd277f19	-0.040892694
93	0xbe5d4ee7	-0.2161213
94	0x3d96b18f	0.07358085
95	0xbe850711	-0.25981954
96	0xbda5b30c	-0.08090791
97	0x3e909c3e	0.28244203
98	0x3d387547	0.04503372
99	0x3c09f8b1	0.008421109
100	0x3dd89f0a	0.10577209
101	0xbd35e3e1	-0.044406775
102	0x3e58c4e7	0.21168862
103	0xbc5f5539	-0.0136311585
104	0x3d4ba83e	0.049720995
105	0x3d637c35	0.055538375
106	0xb8f3c0b9	-0.0001162304
107	0x3e65aaf5	0.22428496
108	0x3d3b378b	0.045707267
109	0x3d7fa28d	0.06241088
110	0x3e055103	0.13019185
111	0xbd214180	-0.039369106
112	0xbe234ee2	-0.1594806
113	0x3c93e1c4	0.01805199
114	0xbe1a4419	-0.1506504
115	0xbe027529	-0.12740006
116	0x3e0e0168	0.13867724
117	0x3e555cdf	0.20836209
118	0xbd3cb853	-0.046074223
119	0x3e22ddf6	0.15904984
120	0x3ec8f2ae	0.3924765
121	0xbdc28f1f	-0.094999544
122	0xbd88154f	-0.06644689
123	0xbe00b34e	-0.125684
124	0x3db04886	0.08607583
125	0x3e0e9d67	0.13927232
126	0x3c69190c	0.014227163
127	0xbc854f4e	-0.016273167
128	0x3d8a319d	0.06747744
129	0x3de34a98	0.11098212
130	0x3e436c0b	0.19084184
131	0x3d1b35d2	0.037893124
132	0x3d4a667b	0.04941414
133	0x3e48a5d0	0.19594502
134	0x3d78ff30	0.06079024
135	0x3de4e7a4	0.111769944
136	0xbe617c3c	-0.22020048
137	0x3e9d3b3e	0.3070926
138	0xbded7ede	-0.115964636
139	0xbe7b080f	-0.24514793
140	0x3e02d9fc	0.12778467
141	0xbc656482	-0.014001014
142	0x3e8604c3	0.26175508
143	0x3d3b8784	0.045783535
144	0x3d97ffe5	0.07421855
145	0x3d092552	0.033482857
146	0xbcc1ad8e	-0.023642328
147	0xbdf72fb1	-0.12069643
148	0x3e5695bd	0.20955558
149	0x3e79fb87	0.24412356
150	0xbddd69c7	-0.10811191
151	0x3c4fade8	0.01267574
152	0x3d966392	0.0734321
153	0xbd55adee	-0.052167825
154	0xbc889aa9	-0.01667531
155	0x3ac35d8a	0.0014905196
156	0x3e4308cb	0.19046323
157	0xbca4c58e	-0.020113733
158	0x3cfb1320	0.030648768
159	0xbd896e7f	-0.067105286
160	0x3dde456d	0.10853086
161	0x3e5724b4	0.21010095
162	0xbe2c34cd	-0.16817017
163	0xbb8b4559	-0.0042502102
164	0x3debdbd9	0.11516542
165	0x3e13d6f3	0.14437465
166	0x3cf46730	0.02983436
167	0x3daded47	0.08492523
168	0xbdba0139	-0.090822645
169	0x3d1ea3ec	0.038730547
170	0xbd05353a	-0.032521464
171	0xbdfd9e1b	-0.12383672
172	0xbe84fe06	-0.25975055
173	0xbdb611ca	-0.08890112
174	0x3d436a20	0.04770863
175	0xbdaa1dcf	-0.08306467
176	0xbe8fa55e	-0.28055853
177	0x3e3090b0	0.17242694
178	0xbea27ffa	-0.31738263
179	0x3d62835c	0.055301055
180	0x3c1e55a7	0.009663976
181	0xbddc89fe	-0.107685074
182	0x3e8eb905	0.27875534
183	0x3d40c00e	0.047058158
184	0x3d83cdc5	0.06435732
185	0xbca4faa4	-0.020139046
186	0x3ea77271	0.327045
187	0x3e4691a0	0.19391489
188	0xbd85ddaa	-0.0653642
189	0x3d1e9709	0.038718257
190	0xbd80a0cd	-0.0628067
191	0x3db2f295	0.08737675
192	0xbe49a3c5	-0.1969138
193	0x3d402012	0.046905585
194	0xbc3feb51	-0.011713819
195	0xbe594be7	-0.2122036
196	0x3eed50ca	0.463507
197	0xbd9c0837	-0.07618754
198	0x3e7d31a0	0.24725962
199	0xbd8d9f71	-0.06915177
200	0x3efda282	0.49538046
201	0x3de32678	0.11091322
202	0xbcb079e1	-0.021542491
203	0x3dbbfbde	0.09178899
204	0xbe6b7ceb	-0.22996871
205	0x3b9016a0	0.0043972284
206	0xbe879040	-0.26477242
207	0xbd7f194d	-0.062279988
208	0xbea89d8b	-0.32932696
209	0x3c1dc4a8	0.009629406
210	0x3da6b1b5	0.08139364
211	0xbe7a056a	-0.24416128
212	0xbe7ffeb4	-0.24999505
213	0xbe3b8da1	-0.18315746
214	0xbcf5cef8	-0.030005917
215	0xbe974df3	-0.29551658
216	0xbe16b4ef	-0.14717458
217	0xbe8bf4d1	-0.27335218
218	0xbe4208af	-0.18948625
219	0x3dd79f12	0.10528387
220	0x3d23d53f	0.03999829
221	0x3e61c4b3	0.22047691
222	0xba967915	-0.0011480177
223	0xbd5ed402	-0.054401405
224	0xbe87ad37	-0.2649934
225	0x3e2657d1	0.16244437
226	0x3e0cc436	0.13746724
227	0x3d57b3dd	0.052661765
228	0x3e5e42b8	0.21705139
229	0xbd2e45ac	-0.042546913
230	0x3dfec15d	0.12439225
231	0xbd77f23b	-0.060533743
232	0xbe80ea00	-0.25178528
233	0xbe8ed1a5	-0.2789432
234	0xbe34009a	-0.17578354
235	0x3e01f791	0.12692095
236	0x3dce7d7b	0.10082527
237	0x3e29a996	0.16568598
238	0xbb2694e3	-0.0025418333
239	0xbdaaac28	-0.083336174
240	0xbd8db5d2	-0.06919445
241	0x3e02b287	0.12763415
242	0x3de73f86	0.11291413
243	0x3e906d9f	0.28208634
244	0x3c5b271c	0.013376024
245	0xbe523918	-0.20529592
246	0x3d9230ac	0.0713819
247	0xbc9505c8	-0.018191233
248	0x3d0e8ee7	0.03480425
249	0x3c9d661a	0.019213725
250	0xbe613a0c	-0.219948
251	0x3d7277c4	0.05919625
252	0xbe15c77a	-0.14626876
253	0x3e13b334	0.1442383
254	0x3e148331	0.1450317
255	0x3a341510	0.00068695936

network_body._body_endoder.seq_layers.0.bias f4 [128]
0	0x3d3b741a	0.04576502
1	0x3d4b65b0	0.049657524
2	0x3d45a04c	0.048248574
3	0x3d14c0f2	0.03631682
4	0x3cc1580e	0.023601558
5	0x3b5f9b10	0.0034119524
6	0x3d06f561	0.032948855
7	0x3d1232ab	0.035692852
8	0x3d2be1b3	0.04196329
9	0x3cb1d0f9	0.021706091
10	0x3be0b4fb	0.006857512
11	0x3cb92ec4	0.022605307
12	0x3d036ddf	0.032087203
13	0x3cddabd2	0.02705947
14	0x3c6c2007	0.014411933
15	0x3ccef372	0.025262568
16	0x3d327fa3	0.043578755
17	0xbcb1963c	-0.021678083
18	0xbc3bbb7f	-0.011458277
19	0x3d18daa0	0.037317872
20	0x3b8f8f3d	0.004381089
21	0x3d83eb47	0.0644136
22	0x3c70cbcb	0.0146970255
23	0x3c6bf1da	0.014400924
24	0x3ac9cd09	0.0015396188
25	0x3d037bd3	0.03210051
26	0x3cdf2919	0.027241277
27	0x3ce0c167	0.027435971
28	0x3d32aa7b	0.043619614
29	0xbd610463	-0.054935824
30	0x3caf3f22	0.021392409
31	0x3d1f47dd	0.038886894
32	0x3cb1283b	0.021625629
33	0x3d08ea39	0.033426497
34	0x3d49e23f	0.04928803
35	0x3d1794e8	0.037007242
36	0x3d31cd8a	0.043408908
37	0xbc30da2c	-0.010794204
38	0x3d087388	0.033313304
39	0x3d33bc80	0.04388094
40	0xbb3b5cfd	-0.002858936
41	0xbd411ee9	-0.04714862
42	0x3d45ed90	0.04832226
43	0x3cab17cb	0.020885369
44	0xbd1a2a3f	-0.037637945
45	0x3d3f6f0b	0.04673676
46	0x3d31eaa6	0.04343667
47	0x3d0401aa	0.03222815
48	0x3d7fa156	0.06240972
49	0x3cd9c5df	0.02658361
50	0x3d08f72b	0.033438843
51	0x3cd85aa8	0.026410416
52	0x3c58f410	0.013241783
53	0x3cdeb4fb	0.027185908
54	0x3c154a4e	0.009111954
55	0x3d22e1c5	0.03976609
56	0x3d1d861c	0.038457975
57	0x3d9beae8	0.07613164
58	0x3d074d47	0.03303268
59	0x3d224358	0.039615005
60	0x3d6f8e03	0.058485042
61	0x3d185d0f	0.037198123
62	0x3d640de0	0.055677295
63	0xbcb13982	-0.021633867
64	0x3c8081d1	0.015686901
65	0x3c944bbc	0.01810252
66	0x3d1eb2d3	0.03874476
67	0x3c5dcc3f	0.013537466
68	0x3c85bc45	0.016325125
69	0x3d12c752	0.035834618
70	0xbcc36e20	-0.023856223
71	0x3d3020b1	0.042999927
72	0x3cf9e626	0.030505251
73	0x3d4f6cfc	0.050641045
74	0x3d34aa65	0.044107813
75	0x3d25bdba	0.04046414
76	0x3d2a4576	0.04157015
77	0x3cdfd31d	0.027322346
78	0x3d398a19	0.045297716
79	0x3c2b609d	0.010460046
80	0x3c15af3d	0.009136018
81	0xbc67c799	-0.014146709
82	0xbbc43dda	-0.0059888186
83	0x3c7635ce	0.0150274765
84	0x3c535647	0.012898988
85	0x3c78d82f	0.015188261
86	0x3a9075c4	0.0011021425
87	0x3d29eae5	0.04148378
88	0x3c98ab28	0.018636301
89	0x3cd3437e	0.025789019
90	0x3cef4aa0	0.029210389
91	0x3d20db80	0.03927183
92	0x3d05e9c7	0.03269365
93	0x3d0712ac	0.03297679
94	0x3b4380e1	0.0029831456
95	0xbc75bd7b	-0.014998789
96	0x3c12cf0a	0.008960495
97	0x3d06c186	0.032899402
98	0x3d07fa84	0.033197895
99	0x3d68e893	0.056862425
100	0x3d34791f	0.044060823
101	0x3ce66292	0.028123174
102	0x3caac362	0.020845119
103	0x3a0ce06b	0.0005374017
104	0x3d076427	0.033054497
105	0x3d5f6a79	0.0545449
106	0x3cbe3137	0.023216827
107	0x3d0914df	0.03346717
108	0xbcd5c9dc	-0.02609723
109	0xbd66cce1	-0.05634773
110	0x3d31210c	0.043244407
111	0x3d4475a1	0.047963742
112	0x3d0e407a	0.03472946
113	0x3d60973b	0.054831725
114	0x3d058445	0.032596845
115	0x3d3dc0d5	0.046326477
116	0x3cf84797	0.030307574
117	0x3d63dc94	0.05563028
118	0x3d23b092	0.039963312
119	0x3ce7af40	0.028281808
120	0x3cd1fe11	0.025633844
121	0x3cd41427	0.025888516
122	0x3d0cf66a	0.034414686
123	0x3d0f7ac1	0.035029177
124	0x3b23623f	0.0024930385
125	0x3ccb5c1b	0.024824193
126	0x3d3746c0	0.044745207
127	0x3c5c4321	0.013443739

network_body._body_endoder.seq_layers.2.weight f4 [128, 128]
0	0x3d605151	0.05476505
1	0x3cef9068	0.029243663
2	0x3e04374a	0.12911716
3	0xbd7ff5ee	-0.062490396
4	0x3c30ea95	0.010798116
5	0xbddd667c	-0.10810563
6	0xbd9f4064	-0.077759534
7	0xbd8fc6e3	-0.070203565
8	0xbc64f0b5	-0.013973405
9	0xbd44dd27	-0.04806247
10	0x3cb5fa9d	0.022214228
11	0x3e4e8f60	0.2017188
12	0xbd1d4d04	-0.038403526
13	0xbe162008	-0.14660656
14	0x3dd39ac3	0.10332253
15	0x3c941b50	0.01807943
16	0xbdd3d376	-0.10343067
17	0xbcad0550	-0.021120697
18	0x3d968c12	0.07350935
19	0x3e6dc0e9	0.2321812
20	0x3e0b9859	0.13632335
21	0x3d8eb8b7	0.06968825
22	0xbd836f00	-0.06417656
23	0x3db543d4	0.08850828
24	0x3d2baeca	0.04191474
25	0xbcfd8b3f	-0.030950187
26	0xbc41b3d5	-0.01182266
27	0xbd9a5ef9	-0.07537646
28	0x3d8553d0	0.065101266
29	0xbcc7ed63	-0.024405187
30	0xbd8a69ce	-0.06758462
31	0x3bdf3c22	0.0068125883
32	0x3d741923	0.059594285
33	0xbd659b4d	-0.05605631
34	0x3e28f00a	0.16497818
35	0xbcf35c8a	-0.029707212
36	0xbe0fa354	-0.14027148
37	0xbd253c47	-0.040340688
38	0xbe0bdcac	-0.13658398
39	0xbbe3e96a	-0.0069553154
40	0xbde93ee9	-0.11388952
41	0x3d3f5bb4	0.046718314
42	0x3e2a1671	0.16610123
43	0x3d07f56d	0.03319304
44	0xbe132c2b	-0.14372317
45	0xbd37f304	-0.044909492
46	0xbde800af	-0.113282554
47	0x3e1198f0	0.14218497
48	0x3d74394d	0.05962496
49	0xbd1b8197	-0.037965383
50	0xbcaf6836	-0.021411996
51	0x3cbc93a7	0.023019625
52	0x3d1adb11	0.037806574
53	0xbd8c5b88	-0.06853396
54	0xbd69c3a3	-0.05707134
55	0x3e23d3ed	0.15998812
56	0x3dce86f2	0.100843325
57	0xbd945c1d	-0.07244132
58	0xbe04c8f3	-0.12967281
59	0x3cca10e2	0.024666253
60	0x3ceb537c	0.028726332
61	0x3d71e169	0.05905286
62	0x3d9b0337	0.075689726
63	0xbdc7bcef	-0.09752833
64	0xbce8adb6	-0.028403144
65	0xbdb3326a	-0.0874985
66	0x3d8e7e6f	0.06957709
67	0xbd4e50ee	-0.05037015
68	0x3c476926	0.012171065
69	0xbdb1cd7f	-0.086817734
70	0xbe1e5b03	-0.15464406
71	0xbd983c5f	-0.0743339
72	0x3dd14be5	0.10219554
73	0xbcb21ef2	-0.021743271
74	0xbba28f58	-0.0049609356
75	0x39b5ef1f	0.0003470117
76	0x3dc2f8a4	0.09520081
77	0xbd899d97	-0.06719511
78	0xbdb90028	-0.09033233
79	0x3d6d23e4	0.057895556
80	0xbc8ed2c5	-0.017434487
81	0x3d295979	0.041345093
82	0x3d495900	0.049157143
83	0xbb2d11a8	-0.002640823
84	0xbd9454d1	-0.0724274
85	0xbdaed7f8	-0.085372865
86	0x3d298281	0.041384224
87	0x3d7814b5	0.060566623
88	0xbe0472b2	-0.12934378
89	0xbba6ab3a	-0.0050863298
90	0x3dfc54db	0.123208724
91	0xbd38f319	-0.04515371
92	0x3d1f619d	0.03891145
93	0x3dbf46c7	0.093396716
94	0x3e2b46c4	0.16726214
95	0xba37968d	-0.000700333
96	0x3df390e9	0.11892874
97	0x3e5a6d36	0.21330723
98	0xbdbc97e0	-0.09208655
99	0x3d975989	0.07390124
100	0x3d941226	0.07230024
101	0x3cd4be9c	0.025969796
102	0xbe1e16c5	-0.15438373
103	0xbde28dc2	-0.110621944
104	0xbc150aa3	-0.009096774
105	0x3d9af17b	0.0756559
106	0xbd937c83	-0.07201483
107	0xbe01de1e	-0.12682387
108	0x3d8ca8cd	0.06868134
109	0xbcd93c26	-0.026517939
110	0xbd845a01	-0.064624794
111	0xbda183c4	-0.078864604
112	0x3dbc4fbf	0.09194898
113	0xbc72c455	-0.014817317
114	0x3e636339	0.22205819
115	0xbd5581c5	-0.05212571
116	0x3e64ca6e	0.22342846
117	0x3d9d980a	0.07695015
118	0x3d4e50c2	0.050369985
119	0xbd1732ac	-0.03691356
120	0x3cf78eb2	0.03021941
121	0x3b46e0ce	0.0030346396
122	0x3e37d462	0.17952111
123	0xbc056df9	-0.008143895
124	0xbe33430c	-0.17506045
125	0xbd5245ae	-0.051335983
126	0xbdf58b77	-0.119894914
127	0xbcf713fd	-0.030160898
128	0xbd726cd6	-0.059185825
129	0x3d2f3b39	0.04278109
130	0xbe279a75	-0.16367514
131	0xbcd6793b	-0.026180854
132	0xbda515d5	-0.08060805
133	0xbc6029a8	-0.013681807
134	0xbe85d7d9	-0.2614124
135	0xbd30ac62	-0.043133147
136	0xbd870549	-0.06592805
137	0x3c8ed955	0.017437616
138	0x3ca6b7c5	0.0203513
139	0x3d2d1051	0.04225189
140	0xbe3af72e	-0.18258354
141	0xbcc777d5	-0.024349133
142	0x3b5f45b8	0.0034068655
143	0xbc11301a	-0.008861566
144	0xbe13637e	-0.14393422
145	0x3e4de7c4	0.20107943
146	0xbd8fe65f	-0.07026362
147	0xbde7566c	-0.112957805
148	0xbe0a7c10	-0.13523889
149	0xbd662d26	-0.0561954
150	0xbdbe6c9d	-0.0929806
151	0xbcfd6072	-0.030929778
152	0xbe05a3ca	-0.13050762
153	0x3b8a3c66	0.004218626
154	0x3d630261	0.05542219
155	0x3d7a636d	0.061129976
156	0x3c2071c5	0.00979275
157	0x3b9fd25f	0.004877373
158	0x3d28108f	0.041031417
159	0xbdf06b46	-0.11739211
160	0xbda6b788	-0.081404746
161	0x3d9b5cf6	0.0758609
162	0xbcf6ac85	-0.03011156
163	0xbd763e9b	-0.0601183
164	0x3b02e0c7	0.0019970404
165	0xbe11591c	-0.14194149
166	0x3e0939d9	0.13400973
167	0xbdb79ca1	-0.089654215
168	0x3cfde605	0.03099347
169	0x3d98cb21	0.07460619
170	0xbcbb7c66	-0.022886466
171	0xbdc9bf05	-0.09850887
172	0x3dd9e782	0.1063986
173	0xbc6c6171	-0.014427529
174	0xbd22ef84	-0.0397792
175	0xbcbb2710	-0.022845775
176	0x3ddc4346	0.10755019
177	0xbd71acbe	-0.05900263
178	0xbdd75259	-0.105137534
179	0xbde7ba15	-0.11314789
180	0xbbafc669	-0.0053642285
181	0xbd54bb0a	-0.051936187
182	0xbe0c984e	-0.13729975
183	0x3d39798d	0.045281935
184	0x3d60a08d	0.054840613
185	0xbe085739	-0.13314523
186	0x3d2cf976	0.042230092
187	0x3d429f4e	0.047515206
188	0xbc6a744e	-0.014309956
189	0x3d3fe108	0.046845466
190	0x3c879146	0.016548764
191	0xbbe5c2e4	-0.007011758
192	0xbd085e5c	-0.033293113
193	0x3bcd227a	0.0062602134
194	0xbe3ae3b9	-0.18250932
195	0xbca3fd3a	-0.020018209
196	0x3db49134	0.08816758
197	0xbd9c1227	-0.0762065
198	0x3d740136	0.059571467
199	0x3d3117e7	0.043235686
200	0x3cbf4f81	0.02335334
201	0xbe0e9ab7	-0.13926207
202	0xbd585473	-0.052814912
203	0xbdd8d7a6	-0.10588007
204	0xbc671191	-0.014103309
205	0xbd7508d3	-0.05982287
206	0xbe1c2e96	-0.15252146
207	0x3d7c128e	0.061541133
208	0x3ca3aadd	0.019978935
209	0x3d529432	0.05141086
210	0x3dbadeb3	0.09124508
211	0x3c9d4814	0.019199409
212	0xbd75fa21	-0.060052995
213	0x3ce34261	0.027741613
214	0x3acba88a	0.00155379
215	0x3d249570	0.040181577
216	0xbcb57ab3	-0.022153234
217	0xbc82fb86	-0.015989076
218	0x3d8f56d6	0.069989845
219	0xb97af0b6	-0.0002393153
220	0xbcf8d7cd	-0.03037634
221	0xbe0edba6	-0.13950977
222	0x3e0523c8	0.1300193
223	0xbddca8ff	-0.10774421
224	0xbd4be1e6	-0.04977598
225	0x3c4733df	0.012158363
226	0xbe336bfa	-0.17521659
227	0xbe013681	-0.12618448
228	0x3d05e6bb	0.032690745
229	0x3cadb091	0.021202357
230	0xbe0ff2b7	-0.14057432
231	0xbe57205e	-0.21008441
232	0xbc4d9be9	-0.012549379
233	0xbc993b35	-0.01870499
234	0x3d5cb4a1	0.0538832
235	0xbd9120a8	-0.07086307
236	0x3d9bffb6	0.07617132
237	0xbd2ee652	-0.04270012
238	0x3c7c28b6	0.015390566
239	0xbe8345b8	-0.2563913
240	0xbe1ec0b5	-0.155032
241	0xbe13c695	-0.14431222
242	0x3dffba85	0.12486748
243	0x3da13318	0.078710735
244	0xbda0e2e5	-0.07855777
245	0xbe77ae0f	-0.24187492
246	0xbcdd981e	-0.027050074
247	0xbd3e5784	-0.04647018
248	0xbc96b5e2	-0.018397275
249	0xbe06c838	-0.13162315
250	0xbe75f7f9	-0.24020375
251	0x3d25bf34	0.04046555
252	0xbda7b331	-0.08188475
253	0x3da72a33	0.08162346
254	0x3d01bd2b	0.031674545
255	0xbcc017d0	-0.023448855

network_body._body_endoder.seq_layers.2.bias f4 [128]
0	0x3d546b0a	0.051859893
1	0xbdb3e774	-0.087843806
2	0x3d490573	0.049077462
3	0x3c982c03	0.018575674
4	0x3d5c1361	0.05372942
5	0x3d2fe826	0.042946003
6	0x3d3b8c9f	0.045788404
7	0xbd1f99ed	-0.038965154
8	0xbd9a7329	-0.07541496
9	0x3d2d5b8c	0.042323634
10	0x3d5fd771	0.05464882
11	0x3d44a4d3	0.04800875
12	0x3d004264	0.031313315
13	0xbbe4f052	-0.006986656
14	0x3d228571	0.03967804
15	0x3c81ac8b	0.015829345
16	0xbaa2173d	-0.0012366545
17	0x3c36e748	0.01116354
18	0x3d15d6b4	0.03658171
19	0x3d6ce80a	0.057838477
20	0x3d0a3d18	0.03374967
21	0xbd172309	-0.036898647
22	0xbd32cb67	-0.04365101
23	0xbd4e18aa	-0.05031649
24	0x3c86ea6d	0.016469205
25	0x3d2c026a	0.04199449
26	0x3d1f4b64	0.038890257
27	0x3cbf71e5	0.023369739
28	0x3ce93cae	0.028471317
29	0x3d0f7d29	0.03503147
30	0x3cc42edd	0.023948127
31	0x3cf3af65	0.02974672
32	0x3d37d72e	0.044882946
33	0x3d3459e7	0.04403105
34	0xbcbba2f9	-0.02290486
35	0xbd80851f	-0.06275391
36	0x3d71ea52	0.059061356
37	0x3cc1cfe4	0.0236587
38	0x3d009482	0.031391628
39	0xbd71c035	-0.059021194
40	0x3d0a9c75	0.033840615
41	0x3cfeeb19	0.031117963
42	0x3d1469d2	0.03623373
43	0x3d1a23c1	0.037631754
44	0xbd976a51	-0.07393325
45	0xbc8699c3	-0.016430741
46	0x3cce7053	0.025200045
47	0x3d8206f2	0.06348981
48	0xbdbc990d	-0.092088796
49	0x3d1fd7aa	0.039024033
50	0x3d5d9c43	0.0541041
51	0x3d0c33ba	0.034229018
52	0xbca1b2f3	-0.01973865
53	0x3d53c84f	0.0517047
54	0x3d2ff979	0.042962525
55	0xbc882726	-0.01662023
56	0x3cd6c232	0.026215646
57	0xbd7b946e	-0.06142085
58	0x3cfbff35	0.03076134
59	0x3cdfb5bb	0.027308336
60	0x3d417667	0.047232058
61	0x3d531db0	0.051541984
62	0xbd14003e	-0.036133043
63	0x3d416e40	0.047224283
64	0x3cccda2f	0.025006382
65	0x3d4fe54a	0.050755776
66	0x3d6a6931	0.057229225
67	0x3d2fea15	0.042947847
68	0x3d6399ee	0.05556672
69	0x3d3c4282	0.045961864
70	0x3c97cd26	0.01853044
71	0xbd6f8519	-0.05847654
72	0xbd920231	-0.07129324
73	0xbca92b6f	-0.020650594
74	0x3d39898f	0.0452972
75	0x3c7f194b	0.015569995
76	0xbcf38771	-0.02972767
77	0xbcd7e1b8	-0.026352748
78	0x3ca09a89	0.019604938
79	0x3d17d28c	0.037066028
80	0x3ce297ef	0.027660338
81	0x3c8632b8	0.016381606
82	0x3c361bac	0.011114996
83	0x3c18f028	0.009334601
84	0xbd2d6311	-0.042330805
85	0x3d210364	0.039309874
86	0xbd662b91	-0.056193892
87	0x3d184097	0.037170973
88	0x3d033686	0.03203442
89	0xbd3ff1be	-0.046861403
90	0xbb7ce8ed	-0.0038590983
91	0x3caf6509	0.021410482
92	0x3d18bd8e	0.03729015
93	0xbd9cc682	-0.0765505
94	0xbd52af6f	-0.051436838
95	0xbc99923c	-0.018746488
96	0x3d075c21	0.033046845
97	0x3d335e0e	0.04379087
98	0x3cf79084	0.030220278
99	0x3cfcd551	0.030863436
100	0xbd9006d0	-0.070325494
101	0xbc938836	-0.018009286
102	0x3d20cb8e	0.039256625
103	0x3cf836b3	0.03029952
104	0x3cd7db82	0.026349787
105	0x3d43f5f1	0.04784197
106	0xbd103aa6	-0.03521218
107	0x3c3a28d7	0.011362276
108	0x3d17f16e	0.03709548
109	0x3c9c0f2e	0.019050207
110	0xbd496895	-0.049172003
111	0xbd3210c8	-0.043473035
112	0x3cd77f8d	0.026305938
113	0xbc01f098	-0.007930897
114	0x3cb2a768	0.021808341
115	0xbd667983	-0.056268226
116	0x3d0069a0	0.03135073
117	0xbd04a969	-0.032388125
118	0x38f0aaaf	0.00011475884
119	0xbd7343ce	-0.059390835
120	0x3d2d641e	0.042331807
121	0xbcbcc546	-0.023043286
122	0xbd4c8b7f	-0.04993772
123	0x3c27364d	0.010205817
124	0xbd794301	-0.060854916
125	0xbd2488d5	-0.040169556
126	0x3d19286a	0.037392057
127	0xbd3b86f7	-0.04578301

action_model._continuous_distribution.log_sigma f4 [1, 2]
0	0xbd3e522c	-0.046465084
1	0x3b387d78	0.0028150957

action_model._continuous_distribution.mu.weight f4 [2, 128]
0	0xbd08ecba	-0.033428885
1	0x3d2482c9	0.04016379
2	0xbcc6689a	-0.0242198
3	0x3c81d2ea	0.015847642
4	0xbd43517c	-0.04768513
5	0xbc9685e4	-0.01837439
6	0xbc80ffd1	-0.015746983
7	0x3c87f4a6	0.01659615
8	0x3d3cf5a5	0.046132702
9	0xbcec0c52	-0.028814469
10	0xba189a10	-0.0005821297
11	0xbd167e59	-0.03674159
12	0xbb75274c	-0.0037407456
13	0x3b4a0bb3	0.0030829727
14	0xbd2b75b0	-0.041860282
15	0xbbeb6728	-0.007183928
16	0x3bca697b	0.006177125
17	0xbc804daf	-0.015662042
18	0xbc7d61f5	-0.015465249
19	0xbd0e4f48	-0.034743577
20	0xbccfa779	-0.025348412
21	0xbca5e744	-0.020251878
22	0x3d4280dc	0.04748617
23	0x3c958e76	0.018256407
24	0xbc4a17fa	-0.012334818
25	0xbd4f6284	-0.05063106
26	0xbd5a7c09	-0.053340945
27	0xbc5bed28	-0.013423242
28	0xbcbc1a09	-0.022961633
29	0xbd09c406	-0.03363421
30	0xbc14166e	-0.009038551
31	0xbcb3ef8c	-0.02196481
32	0xbd60389c	-0.054741487
33	0xbd6a51a0	-0.05720675
34	0x3b949019	0.0045337793
35	0x3d40b04a	0.047043122
36	0xbcfcb015	-0.030845681
37	0xbaef63c5	-0.0018263987
38	0xbd266dcb	-0.04063205
39	0x3be310f5	0.0069295117
40	0xbccaf348	-0.024774209
41	0xbcb5f8a3	-0.022213286
42	0xbce805be	-0.02832305
43	0xbca6ca9a	-0.02036028
44	0x3caa4ea4	0.020789452
45	0x3bbc89fc	0.0057537537
46	0xbbe4f72a	-0.006987472
47	0xbc43ba50	-0.011946276
48	0x3d192b4a	0.0373948
49	0xbd1ca74f	-0.038245495
50	0xbcfbc492	-0.03073338
51	0xbce3b24c	-0.02779498
52	0x3cc1c3fb	0.023653021
53	0xbd23abca	-0.039958753
54	0xbcf6392b	-0.030056557
55	0xbbe820eb	-0.0070840023
56	0xbbb6d523	-0.005579607
57	0x3cdc6ea5	0.026908228
58	0xbca03982	-0.019558672
59	0xbc9b96f0	-0.018992871
60	0xbcf91451	-0.030405195
61	0xbb9cf231	-0.0047896137
62	0x3cc718e2	0.024303857
63	0xbbce77ee	-0.006300918
64	0xbd822a9d	-0.06355784
65	0xbce67c01	-0.028135302
66	0xbc86302b	-0.01638039
67	0xbd11ca18	-0.035593122
68	0xbd4a4616	-0.049383245
69	0xbcb8c514	-0.022554912
70	0xbcc21c29	-0.023695068
71	0x3d555392	0.052081652
72	0x3c95b5d2	0.018275175
73	0x3cddb31c	0.027062945
74	0xbd53810f	-0.05163675
75	0xbaf64c59	-0.0018791064
76	0x3c82ebd7	0.015981598
77	0xbbcd449e	-0.0062642833
78	0xbadfdc7c	-0.0017079259
79	0xbd0498c8	-0.032372266
80	0xbc0e6a32	-0.008692311
81	0xbcb9ce89	-0.022681491
82	0xbbf71533	-0.007540369
83	0x3b2ef0c0	0.002669379
84	0x3d82bcb5	0.06383649
85	0xbd233329	-0.039843712
86	0x3cc97fe9	0.024597125
87	0xbcd2d9fd	-0.02573871
88	0xbd3017ee	-0.04299157
89	0x3b7ad67e	0.003827482
90	0xbc287ddc	-0.010283913
91	0xbc056ac1	-0.008143128
92	0xbca0025c	-0.019532375
93	0x3d88cd24	0.066797525
94	0x3ca31cbf	0.019911168
95	0x3c7d9efb	0.015479798
96	0xbc6eb121	-0.014568598
97	0xbd3b0691	-0.04566056
98	0xbcad460c	-0.021151565
99	0xbd2a8ec0	-0.041640043
100	0x3d794afa	0.06086252
101	0x3ccfeec8	0.025382414
102	0xbc106aab	-0.008814494
103	0xbd2ce46b	-0.042210024
104	0x3c5f7a92	0.013640063
105	0xbd0f3460	-0.034962058
106	0x3cfb3e59	0.030669378
107	0x3c36b6f0	0.011152014
108	0xbcc9fb07	-0.024655832
109	0xbca3e31b	-0.020005753
110	0xbc128f17	-0.008945248
111	0x3d007810	0.0313645
112	0xbc5a0f39	-0.013309293
113	0xbb3fb422	-0.0029251655
114	0xbd3bb271	-0.04582447
115	0x3d5f9bb1	0.05459184
116	0xbd126643	-0.035742056
117	0x3bfb4664	0.0076683033
118	0x3d0322db	0.032015663
119	0x3d2d1ae2	0.042261966
120	0xbd08870b	-0.033331912
121	0x3d6a2045	0.05715968
122	0x3d02960a	0.03188137
123	0x3af3fbb7	0.0018614446
124	0x3d0309c8	0.03199175
125	0x3b7e3d69	0.0038793928
126	0xbc7fd0e6	-0.01561377
127	0x3d80aab2	0.062825575
128	0xbc06d841	-0.00823027
129	0xbc09cf76	-0.008411279
130	0x3d2c933f	0.042132612
131	0x3ce7262a	0.02821644
132	0xbd407b27	-0.046992447
133	0x3d188b0f	0.03724199
134	0xbc8f48c5	-0.017490754
135	0xbce0de03	-0.027449613
136	0xbc1c2132	-0.009529399
137	0x3d05359b	0.032521825
138	0x3b793c3e	0.0038030292
139	0x3b91609c	0.0044365656
140	0xbc7e1a55	-0.015509208
141	0x3ca0ae45	0.019614348
142	0xbcce24f2	-0.025164101
143	0xbcf61cc6	-0.030043017
144	0x3c89c5d6	0.016817968
145	0x3cd6f836	0.026241403
146	0x3bd41823	0.006472604
147	0x3cefa5e3	0.029253906
148	0xbbf58e8d	-0.0074938
149	0xbc23023b	-0.009949262
150	0xbcc20c6a	-0.02368756
151	0xbb413c5a	-0.0029485435
152	0x3cd717e1	0.026256504
153	0xbb4c0322	-0.0031129797
154	0x3c94609a	0.01811247
155	0xbbcd3724	-0.006262677
156	0x3af38909	0.0018580268
157	0xbc8591bf	-0.016304849
158	0x3c6d1a28	0.014471568
159	0x3d47f108	0.04881385
160	0x3cbb165b	0.022837808
161	0xbc7f0cd0	-0.01556702
162	0x3cba0ffb	0.022712698
163	0xbcbb58c8	-0.022869483
164	0x3c22f820	0.009946853
165	0xbcbc6c76	-0.023000937
166	0x3b348be0	0.0027549192
167	0x3bb40911	0.005494245
168	0x3b8c324c	0.004278457
169	0x3c596380	0.013268352
170	0x3d5e8fcb	0.05433635
171	0x3c953f9c	0.018218808
172	0x3bf9759a	0.007612896
173	0x3cc398b5	0.023876527
174	0x3c5e526c	0.013569456
175	0xbaa76437	-0.0012770955
176	0x3b91bf4e	0.004447854
177	0xbcbc9db1	-0.023024412
178	0x3c0b1e0e	0.008491052
179	0x3c49c170	0.0123141855
180	0xbc090f92	-0.008365529
181	0xbcacdff7	-0.021102889
182	0x3ca83f46	0.020537984
183	0xbce376f5	-0.027766684
184	0x3d0fb762	0.035086997
185	0xbc0e6fe3	-0.008693668
186	0xbc228d93	-0.009921449
187	0xbc3ecb1d	-0.011645106
188	0x3c372d7d	0.011180279
189	0xba15de0c	-0.00057169865
190	0x3c2b0919	0.010439181
191	0xbba2899b	-0.0049602515
192	0xbbdce481	-0.006741107
193	0xbd2154b7	-0.03938743
194	0xbc018bf8	-0.007906906
195	0x3cd1845f	0.025575815
196	0x3cd55242	0.0260402
197	0xba71cc42	-0.0009223857
198	0x3cd683b5	0.02618585
199	0xbc17d277	-0.009266487
200	0xbc152243	-0.009102407
201	0x3c2c980f	0.0105343005
202	0xbd047d03	-0.032345783
203	0xbb0f7f00	-0.0021895766
204	0x3d084a70	0.033274114
205	0x3c964b3d	0.018346423
206	0xbd7cdcdd	-0.06173407
207	0xbd06b3a7	-0.032886174
208	0xbc3271f1	-0.010891424
209	0x3cd0c625	0.025485108
210	0xbc896ea0	-0.016776383
211	0x3c7fcf3f	0.015613376
212	0x3be19287	0.0068839225
213	0xbcc924a1	-0.024553599
214	0xbbcee66b	-0.006314089
215	0xbb9a8125	-0.0047151023
216	0x3d05b140	0.032639742
217	0xbc1c480a	-0.00953866
218	0x3c46d2ee	0.0121352505
219	0xbb663c91	-0.0035131315
220	0xbc95b994	-0.018276967
221	0x3c39f31d	0.011349467
222	0x3c70f289	0.014706262
223	0xb9c94faf	-0.00038397076
224	0xbc50537b	-0.012715216
225	0xbc7218d5	-0.014776428
226	0xbbbe0cb9	-0.0057998565
227	0xbcb4de1b	-0.022078564
228	0xbbbc0d44	-0.005738886
229	0xbce363c4	-0.027757533
230	0xbccafa35	-0.024777511
231	0xbc9b1be0	-0.01893419
232	0xbd61190f	-0.05495554
233	0x3d087660	0.033316016
234	0x3c8e10a7	0.017341925
235	0xbc2eecbc	-0.010676559
236	0xbc831278	-0.016000018
237	0xbc4b1513	-0.012395161
238	0xbc23b70b	-0.009992371
239	0xbb9bfccc	-0.0047603603
240	0x3cb6079d	0.022220427
241	0xbceda28f	-0.029008178
242	0xbc5174db	-0.012784208
243	0xbd26d369	-0.04072896
244	0xbbf23832	-0.007391953
245	0xbd12f751	-0.03588039
246	0xbccda74b	-0.025104186
247	0x3c95cb60	0.018285453
248	0x3c21e111	0.00988032
249	0xbc8f379c	-0.017482571
250	0xbb3fa9f8	-0.0029245596
251	0x3c860483	0.016359573
252	0xbcb6d785	-0.022319565
253	0xbac0e42c	-0.0014716438
254	0x3c6d990a	0.014501819
255	0x3cf5dae4	0.030011602

action_model._continuous_distribution.mu.bias f4 [2]
0	0xbd4480d0	-0.047974408
1	0x3bef9197	0.007311057

action_model._discrete_distribution.branches.0.weight f4 [5, 128]
0	0x3c5353a8	0.012898363
1	0xbd21ba54	-0.039484337
2	0xbc319a68	-0.010840036
3	0xbb215c7a	-0.002462177
4	0x3cca2002	0.024673466
5	0x3c2b10de	0.010441033
6	0xbc28f0f2	-0.010311352
7	0x3c9ef4db	0.019403866
8	0x3bf6a978	0.0075275265
9	0xbc59a319	-0.013283514
10	0xbcb82dca	-0.022482771
11	0xbd03bd89	-0.032163177
12	0x3cd8090a	0.026371498
13	0x3d050064	0.032471076
14	0x3c007305	0.007839923
15	0x3cbf9fac	0.023391567
16	0xbc593d72	-0.013259279
17	0x3cb3ecf8	0.021963581
18	0xbcc0a1dd	-0.023514682
19	0x3cfdd769	0.030986505
20	0xbb949692	-0.004534551
21	0x3cf8e170	0.030380934
22	0xbd91995b	-0.07109328
23	0x3cb8ff1d	0.022582585
24	0xbc890fce	-0.01673117
25	0x3cc2b475	0.02376769
26	0x3c470db2	0.012149261
27	0x3c6272f0	0.013821349
28	0xbc2481c6	-0.010040706
29	0x3cc39222	0.023873392
30	0xbc44014e	-0.011963202
31	0xbbc66fd6	-0.0060558124
32	0xbbe5a5a5	-0.0070082718
33	0xbc979303	-0.018502718
34	0x3d017c55	0.031612713
35	0x3b2de54d	0.002653438
36	0xbc38be70	-0.011275873
37	0xbd043f59	-0.032286976
38	0xbc56c87b	-0.013109322
39	0xbcc7d210	-0.024392158
40	0x39ebae3a	0.00044952502
41	0xbc9ab36a	-0.01888438
42	0xbc48af01	-0.012248755
43	0x3c05c1f4	0.008163918
44	0x3c13bcd3	0.009017187
45	0xbc666f19	-0.014064574
46	0xbce53c84	-0.027982958
47	0xbc95e58a	-0.01829793
48	0xbcc37e86	-0.023864042
49	0xbcab4979	-0.020909058
50	0x3c8c86d6	0.017154139
51	0x3c7e86b3	0.0155350445
52	0x3b9bb529	0.0047518206
53	0xbc8a107e	-0.016853567
54	0x3c167394	0.009182829
55	0xbcb20a0c	-0.021733306
56	0xbb5bf76c	-0.0033564223
57	0x3ccbe44c	0.024889134
58	0x3bf4972e	0.007464311
59	0x3b05c396	0.0020410768
60	0x3ba2f6cd	0.0049732686
61	0x3c816d97	0.015799327
62	0xbd09ee4c	-0.033674523
63	0x3cb2f5b2	0.021845672
64	0x3cb75277	0.02237819
65	0xbca09833	-0.019603824
66	0xbc4bd7e6	-0.012441611
67	0x3b10d28b	0.002209815
68	0x3c74f3e2	0.014950724
69	0x3b6ebe50	0.0036429353
70	0xbd057628	-0.032583386
71	0x3cef8c9b	0.02924185
72	0x3ccc4c85	0.024938831
73	0xbd4480e9	-0.0479745
74	0xbc8b5595	-0.017008582
75	0x3ac0b242	0.0014701562
76	0xbcaaa073	-0.020828461
77	0x3c153e92	0.009109156
78	0xbc0454ad	-0.008076829
79	0x3c1d21be	0.009590564
80	0x3bd32a07	0.006444219
81	0xbc8921ab	-0.016739687
82	0xbd22144e	-0.039570145
83	0xbbddf26c	-0.0067732837
84	0x3cab33b0	0.02089867
85	0x3c8a61a2	0.016892258
86	0xbd0f1236	-0.034929477
87	0x3a96fbe7	0.0011519165
88	0xbc95ef85	-0.018302688
89	0xbc94cd7d	-0.01816439
90	0xbcb3463a	-0.021884073
91	0xbc95f1f2	-0.018303845
92	0xbd00c8e2	-0.031441577
93	0x3c4c0222	0.01245168
94	0x3cb1dbb4	0.021711208
95	0xbcbcb930	-0.023037523
96	0x3c46da6d	0.012137038
97	0x3c9885e5	0.018618533
98	0xbbd7c7d6	-0.0065851016
99	0xbc9acbae	-0.01889595
100	0xbbd2f459	-0.00643782
101	0xbc7ea2e1	-0.015541763
102	0xbcd765b2	-0.02629361
103	0xbd0dbce8	-0.034603983
104	0x3bd5ab33	0.0065206527
105	0xbbf85b1a	-0.0075792195
106	0xbce64a1a	-0.028111506
107	0x3b8e5dad	0.004344663
108	0xbd3ec98c	-0.04657893
109	0xbcf18f6d	-0.029487336
110	0x3c41538e	0.011799706
111	0xbc64a8d4	-0.013956267
112	0x3d27ae0f	0.04093748
113	0xbcada78a	-0.021198053
114	0x3bae104d	0.005312002
115	0xbcf2f32f	-0.029656975
116	0x3cffb3ee	0.031213727
117	0xbd76fe59	-0.06030116
118	0xbd05c704	-0.0326605
119	0x3c166792	0.0091799665
120	0xbb8874dd	-0.004164322
121	0xbcede2d3	-0.029038822
122	0xbc9f3e6e	-0.019438948
123	0xbd090e21	-0.03346074
124	0x3c6988de	0.014253823
125	0xb92ae88f	-0.00016299098
126	0xbaa75847	-0.0012767398
127	0xbd0b6357	-0.034030285
128	0xba9f8f7d	-0.00121735
129	0x3d7aac15	0.061199266
130	0xbcb676b3	-0.022273397
131	0xbbf4e2fe	-0.0074733486
132	0xbd15bc46	-0.036556505
133	0xbca22e0f	-0.019797353
134	0xbc1324e3	-0.008980962
135	0x3c461a55	0.012091239
136	0x3cffbf51	0.031219156
137	0xbbf63e94	-0.007514784
138	0xbc473976	-0.012159696
139	0xbd016a61	-0.03159559
140	0x3d0a0373	0.033694696
141	0xbc2be018	-0.01049044
142	0xbc4531ac	-0.0120357685
143	0xbc48eb92	-0.012263196
144	0xbbb3bcc2	-0.005485148
145	0x3ca940cf	0.020660786
146	0xbd6b82c1	-0.057497744
147	0xbb0ed6a8	-0.0021795426
148	0xbb12f3ab	-0.002242307
149	0x3c1248f7	0.008928529
150	0x3d161d46	0.03664901
151	0x3cd23ca1	0.025663676
152	0x3ca062bd	0.019578332
153	0xbcfb8515	-0.030703107
154	0xbc463777	-0.012098185
155	0xbcb093ba	-0.021554817
156	0x3bc178be	0.005904286
157	0xbd385576	-0.045003377
158	0x3cf6104e	0.030037072
159	0xbb95cc8a	-0.004571502
160	0xbd07aca1	-0.033123616
161	0xbc277223	-0.010220083
162	0xbca9bcd1	-0.020719917
163	0x3d47cad7	0.048777428
164	0x3c36ec05	0.01116467
165	0xbc83df9d	-0.016097838
166	0xbc68e498	-0.014214657
167	0x3d0ed554	0.034871414
168	0xbb3533ef	-0.0027649363
169	0xbce91852	-0.02845398
170	0xbc0e2dea	-0.008677939
171	0xbcd7e15f	-0.026352582
172	0x3c1b2895	0.009470125
173	0x3cbf948b	0.02338626
174	0xba313096	-0.0006759254
175	0xbd4b8a6f	-0.049692567
176	0x3d06ab06	0.032877944
177	0xbc72fc8e	-0.014830722
178	0xbd760604	-0.06006433
179	0xbd22d746	-0.039756082
180	0x3d00b732	0.03142471
181	0x3d24ed42	0.04026533
182	0xbcd36a87	-0.025807632
183	0xbba6664d	-0.005078113
184	0xbd40ef78	-0.047103375
185	0xbbe5931a	-0.0070060613
186	0x3c41e8e3	0.01183531
187	0x3c2e0dcf	0.010623409
188	0xbc0819e5	-0.008306955
189	0xbcdcaa78	-0.026936755
190	0x3d386098	0.045013994
191	0xbc9e23a6	-0.019304108
192	0x3b879eda	0.0041388096
193	0x3b50d8ce	0.0031867507
194	0xbc9d6b12	-0.019216094
195	0x3cdc26a9	0.026873903
196	0xbd624122	-0.055237897
197	0xbccd0cf0	-0.025030583
198	0xba9198bf	-0.0011108144
199	0xbc44efa0	-0.012020022
200	0x3cc5edbc	0.024161212
201	0xb9e557fe	-0.00043743843
202	0x3c13a4d4	0.009011466
203	0x3b142f7e	0.0022611315
204	0x3d2ce21e	0.04220783
205	0x3cfb2705	0.030658254
206	0x3c9c344b	0.019067904
207	0xbd69004d	-0.056885052
208	0x3ca3e1a4	0.020005055
209	0xbc9bbd02	-0.019011024
210	0x3ca6bfba	0.020355094
211	0x3c83d2bd	0.016091699
212	0x3d143bb1	0.03618974
213	0x3c754c77	0.014971844
214	0x3d89067a	0.066906884
215	0xbc6d6932	-0.014490413
216	0x3be55e8f	0.0069997977
217	0x3caf6f6a	0.021415431
218	0x3c0acba9	0.008471408
219	0xbc3585f1	-0.011079297
220	0xbce56359	-0.028001474
221	0x3c854908	0.016270176
222	0x3d1b409e	0.03790342
223	0xbc42900e	-0.011875166
224	0xbcc47794	-0.0239828
225	0xbb9f0046	-0.0048523275
226	0xbd52a605	-0.05142786
227	0x3b26e89d	0.0025468238
228	0x3d136b94	0.035991266
229	0xbd16e2c3	-0.03683735
230	0x3c826cdc	0.015921049
231	0xbb7474c7	-0.003730105
232	0xbca482c7	-0.02008189
233	0xbce134fb	-0.027491083
234	0xbce544e3	-0.02798695
235	0xbd29edda	-0.0414866
236	0x3c13c4ce	0.00901909
237	0x3c00a17e	0.007851003
238	0x3c8c0430	0.01709184
239	0x3b9bcdc9	0.004754756
240	0xbc67eec2	-0.014156045
241	0xbc954463	-0.018221086
242	0x3ca612b7	0.020272596
243	0x3cc231e2	0.023705427
244	0xbcd28002	-0.025695805
245	0xbc4f40df	-0.012649744
246	0x3cb124c6	0.02162398
247	0x3ce2196f	0.027600018
248	0xbc043e64	-0.008071516
249	0x3bd290a1	0.0064259325
250	0xbcfd0010	-0.030883819
251	0x3d2f4436	0.04278966
252	0x3cd53d7b	0.026030293
253	0xbc983f8e	-0.018584993
254	0xbb7c51a5	-0.0038500812
255	0x3d4dbdf0	0.050229967

action_model._discrete_distribution.branches.0.bias f4 [5]
0	0xbade5f44	-0.0016965647
1	0xbd40d50f	-0.04707819
2	0x3d91e3de	0.0712354
3	0xbc9418ad	-0.018078173
4	0xbbf18c45	-0.0073714578

exp_avg f4 [128, 38]
0	0xb9dbd13a	-0.0004192682
1	0xb95d839a	-0.00021125228
2	0xb8c6e85d	-9.484657e-05
3	0xb9e67980	-0.00043959543
4	0xb96eca8a	-0.000227729
5	0x3825c236	3.951994e-05
6	0x3923b104	0.00015610835
7	0x392f4c1b	0.00016717652
8	0xb91b588c	-0.00014814938
9	0x3836cd6c	4.3583495e-05
10	0x36f8226c	7.394983e-06
11	0xb8bbc5fe	-8.953734e-05
12	0xb93014c7	-0.00016792408
13	0x3811e93a	3.4787903e-05
14	0xb8a2c207	-7.7609024e-05
15	0xb8935652	-7.025585e-05
16	0x38a07a51	7.652178e-05
17	0xb90d0948	-0.00013450265
18	0xb69be077	-4.645491e-06
19	0x374c17be	1.2164875e-05
20	0xb80ed00f	-3.4049208e-05
21	0xb9093fec	-0.00013089151
22	0x38a39a2a	7.801161e-05
23	0x378c9b42	1.6761598e-05
24	0x392566d5	0.00015773934
25	0x39012060	0.0001231446
26	0xb8aa1eb7	-8.111953e-05
27	0xb8ed5856	-0.000113174945
28	0x3773b3ac	1.4525762e-05
29	0xb7d9f8d5	-2.5984287e-05
30	0xb819d499	-3.667604e-05
31	0x354a9500	7.546769e-07
32	0xb7a1ed2c	-1.9303137e-05
33	0xb82d139a	-4.126467e-05
34	0x39a34d56	0.00031147402
35	0xb88971ec	-6.553889e-05
36	0x38e6b21c	0.0001100043
37	0xb8deaa3c	-0.000106174935
38	0xb90b2e3c	-0.00013273297
39	0x37f06dc2	2.866134e-05
40	0x36801610	3.8172657e-06
41	0xb9052956	-0.00012699267
42	0xb8d123d5	-9.972571e-05
43	0xb9285e0a	-0.00016056761
44	0x392cdf88	0.0001648647
45	0xb7841fef	-1.5750496e-05
46	0x38a470a2	7.841109e-05
47	0x3944644c	0.0001872938
48	0xb8dd7b79	-0.000105611
49	0x382360bb	3.8952316e-05
50	0xb93e936a	-0.00018174728
51	0xb93bb4ed	-0.0001790111
52	0xb92c749e	-0.00016446642
53	0xb8b182b2	-8.4643616e-05
54	0x38bf7b13	9.130514e-05
55	0x37032b90	7.818351e-06
56	0x37e74b08	2.7572285e-05
57	0x39498864	0.00019219663
58	0x3604b9b4	1.9777626e-06
59	0xb8d7fd72	-0.00010299207
60	0x381e3c97	3.7726564e-05
61	0xb8fbe832	-0.000120118624
62	0x388820e5	6.4911124e-05
63	0xb87a60ff	-5.969498e-05
64	0xb7c69660	-2.3673463e-05
65	0xb99e0a22	-0.00030143658
66	0x382de660	4.1460968e-05
67	0xb9b28050	-0.00034046406
68	0xb9e1e1db	-0.0004308362
69	0xb9200fb2	-0.00015264636
70	0xb98f1c84	-0.0002729633
71	0xb724539e	-9.79463e-06
72	0x382b1110	4.0785468e-05
73	0xb941d865	-0.00018486528
74	0x39010053	0.0001230252
75	0x38a8afba	8.043596e-05
76	0xb7833420	-1.564069e-05
77	0x3a189801	0.000582099
78	0xb9cb43fe	-0.00038769835
79	0xba1975a2	-0.00058540155
80	0xb98eafc9	-0.0002721532
81	0x3837a6a1	4.3785785e-05
82	0x37fab462	2.988632e-05
83	0x3996c44f	0.0002875649
84	0xb9682c4b	-0.00022141745
85	0x3a4b12b3	0.0007746622
86	0xb8f82452	-0.00011832327
87	0xba3b6a80	-0.00071493536
88	0x3a4e01cb	0.00078585435
89	0x39f0939e	0.0004588635
90	0xb966b765	-0.00022002829
91	0x39091356	0.00013072541
92	0xb8dbcef3	-0.00010481281
93	0x39dce0f9	0.00042129288
94	0xb87fd12c	-6.0991544e-05
95	0xba1b74c5	-0.0005930181
96	0x3926050a	0.00015832871
97	0xba193766	-0.0005844742
98	0x38b920f4	8.8276254e-05
99	0xb9fcf51a	-0.000482478
100	0xb9024e08	-0.00012426835
101	0xb8d2e464	-0.000100561214
102	0xba0a14dc	-0.00052673905
103	0xb9b30a7f	-0.0003414936
104	0x391c358c	0.00014897267
105	0xb9ed59e0	-0.00045271125
106	0xb97c7fe4	-0.00024080236
107	0xb9fcb05f	-0.00048196592
108	0xb8c0771d	-9.17746e-05
109	0xb8b8ba62	-8.80852e-05
110	0x3916a947	0.00014368175
111	0xb945e1ee	-0.0001887155
112	0x39fd5de3	0.00048325871
113	0x3907b9c1	0.00012943802
114	0x3978b345	0.00023717906
115	0x3985f2cd	0.00025548637
116	0xb8c09d46	-9.184568e-05
117	0x395d3361	0.00021095343
118	0x38e9b330	0.00011143682
119	0x38f3ca94	0.00011624876
120	0xb854f75e	-5.0775117e-05
121	0xb8fe2954	-0.00012119362
122	0x380333cf	3.1281084e-05
123	0x39e24fac	0.0004316544
124	0xb868c4b4	-5.5496304e-05
125	0xb9c14e4e	-0.0003687017
126	0x397cdfc5	0.00024115953
127	0x37f5b83a	2.9292063e-05
128	0xb801502c	-3.0830663e-05
129	0xb96ad175	-0.00022394008
130	0xb92810cb	-0.00016027984
131	0x3a40f56e	0.00073607906
132	0xb82b1c4a	-4.0795923e-05
133	0x390c5829	0.00013384283
134	0x380fddc6	3.43004e-05
135	0xb8e91fe1	-0.00011116244
136	0xb8ea5730	-0.000111742294
137	0xb8ecdf3a	-0.00011294936
138	0x39b8db40	0.0003525857
139	0xb8d8caa6	-0.00010337429
140	0xb96ae250	-0.00022400287
141	0xb92687ef	-0.00015881633
142	0xb992397b	-0.00027890116
143	0xb99985f6	-0.00029282243
144	0xb93e2c20	-0.0001813625
145	0xb9738a7b	-0.00023225874
146	0xb9922b2b	-0.00027879453
147	0xb8491074	-4.7937458e-05
148	0x394fb915	0.00019810007
149	0xb90b6970	-0.00013295352
150	0x39ac3c85	0.00032851487
151	0x39afd7bc	0.00033539336
152	0xb8051a54	-3.173419e-05
153	0x38199c7a	3.6623773e-05
154	0x3948c614	0.00019147276
155	0x378d0d9e	1.681485e-05
156	0xb8135aa1	-3.5131936e-05
157	0xb89fb032	-7.61453e-05
158	0xb82c4091	-4.1068128e-05
159	0x38cf2eef	9.879271e-05
160	0xb868d116	-5.5507837e-05
161	0x3907ef40	0.00012963731
162	0x3817a72a	3.615689e-05
163	0x392c3236	0.00016421903
164	0x38cbb8e5	9.7142336e-05
165	0x386cb4f0	5.6435296e-05
166	0x38a1d839	7.717353e-05
167	0x380cdae3	3.3582455e-05
168	0xb814749c	-3.539455e-05
169	0x3768642a	1.3851599e-05
170	0xb5aed74f	-1.3026673e-06
171	0x388201c0	6.199209e-05
172	0xb8de3b0a	-0.00010596782
173	0xb88b3e56	-6.6396475e-05
174	0xb8ff74cd	-0.000121811034
175	0x38fe4dfe	0.00012126191
176	0x389821fb	7.254254e-05
177	0xb616c550	-2.2466593e-06
178	0x37950677	1.7765195e-05
179	0x3384fa00	6.192204e-08
180	0xb908f09f	-0.00013059609
181	0x383e7ef6	4.541777e-05
182	0xb7f824f8	-2.9581119e-05
183	0x397b4e74	0.00023966451
184	0x38c3791f	9.320885e-05
185	0xb6b21bcf	-5.3080507e-06
186	0x393186d0	0.00016930257
187	0xb9051fcf	-0.00012695718
188	0x39434e55	0.0001862583
189	0x38c4d107	9.384943e-05
190	0x39c0ee14	0.00036798476
191	0xb900a363	-0.00012267898
192	0x39c31bc5	0.00037213988
193	0x39b035c1	0.00033609386
194	0x381c4cdd	3.7264883e-05
195	0x388ecc0b	6.8090936e-05
196	0xb7a3da50	-1.9532774e-05
197	0x38d436ba	0.000101191414
198	0xb792fde0	-1.7522776e-05
199	0x39a0c4e6	0.0003066428
200	0x37e325f8	2.707819e-05
201	0x39327943	0.00017020576
202	0xb78c5095	-1.6726824e-05
203	0xb8ad79ac	-8.271946e-05
204	0xb70c4e7a	-8.362922e-06
205	0x39890b0b	0.00026138904
206	0xb7d09548	-2.4865047e-05
207	0x39250cbb	0.00015740369
208	0x389f1914	7.586382e-05
209	0xb955cf60	-0.00020390516
210	0xb92467ec	-0.00015678973
211	0x3842ada2	4.6414913e-05
212	0xb61cb8c0	-2.335335e-06
213	0xb6fa18c2	-7.453463e-06
214	0x3900b460	0.00012274226
215	0xb8c26c8b	-9.2708586e-05
216	0x3989c73a	0.00026279112
217	0x3902b9a8	0.00012466928
218	0xb8ab0bc7	-8.156109e-05
219	0x398e0613	0.00027088876
220	0x397a8baa	0.00023893887
221	0x394f40d5	0.0001976521
222	0x39a06a7a	0.0003059691
223	0x35c5f808	1.474983e-06
224	0x38fb8098	0.00011992565
225	0xb742e5cc	-1.1616805e-05
226	0xb882c611	-6.235776e-05
227	0x398a4ca5	0.00026378516
228	0x399ebaca	0.00030275277
229	0xb9115cbe	-0.00013862827
230	0x38fc789b	0.00012038761
231	0x38e13a8a	0.0001073974
232	0x390a9d08	0.00013219204
233	0xb8b021ab	-8.398605e-05
234	0x3944951a	0.00018747561
235	0x39fca768	0.00048189913
236	0x384e5de6	4.9201677e-05
237	0x39147280	0.00014157034
238	0x37ac5d20	2.0547363e-05
239	0xb7df97a4	-2.6654285e-05
240	0xb822204e	-3.8653896e-05
241	0xb99960fb	-0.0002925469
242	0xb8aecc23	-8.33499e-05
243	0x38723754	5.7748824e-05
244	0x376e4f26	1.4204334e-05
245	0x39ec8744	0.00045114208
246	0x38a8842c	8.035483e-05
247	0xb90c3140	-0.00013369787
248	0xb9f23abd	-0.000462016
249	0xb743acc8	-1.16631345e-05
250	0x390b55ca	0.00013288032
251	0x37d0444e	2.4827339e-05
252	0xb9923368	-0.0002788559
253	0xb75c6024	-1.3135406e-05
254	0x383daa3e	4.5219662e-05
255	0xb8edc818	-0.00011338311
